model.pt (torch, 181306 bytes, 4 tensors)

embedding.weight f4 [667, 64]
000000 2c 12 85 bf dd 66 6f be 43 ca e5 be 82 42 47 bd
       -1.0396171 -0.23379083 -0.44880876 -0.04864741
000010 83 ad 3a bf 0c cf cf 3f b6 9c 43 3f e3 08 76 3f
       -0.7292101 1.6235061 0.76410997 0.9610731
000020 02 c7 db 3f 93 58 87 3e 21 b1 87 bf d2 13 f0 3d
       1.7170107 0.26434764 -1.060093 0.117225304
000030 8e bc 8b 3e 86 2c 1a bf 43 96 87 3e 95 14 76 3f
       0.27292293 -0.6022419 0.26481828 0.96125156
000040 0f 82 82 bf 79 96 b2 3f 97 10 24 bf 5b 8f 96 3f
       -1.0195941 1.3952171 -0.64087814 1.1762499
000050 05 26 18 40 48 5b 85 3d 04 49 06 bf 04 4b f8 be
       2.3773205 0.06511551 -0.52455163 -0.48494732
000060 60 cb 18 3e 9a 37 37 3f 3c d9 3e 3f d4 66 8c bf
       0.14921331 0.71569216 0.74550223 -1.0968881
000070 c6 39 0e bf 50 b6 4c bf c2 cd 85 be 9e b4 8c bf
       -0.55556905 -0.79965687 -0.26133543 -1.099262
000080 8d 33 ca be 46 4d b0 bd 1f 94 e1 3f 8a 43 a1 bf
       -0.39492455 -0.08608489 1.7623328 -1.2598736
000090 07 8f 13 bf c4 5e 81 be 1c 66 fd 3e 70 8c d9 be
       -0.5764012 -0.25267613 0.49491966 -0.42489958
0000a0 52 52 c6 bf 25 ee 68 3f b5 19 58 3f ab 9a 78 be
       -1.5493872 0.9098838 0.84414226 -0.24277751
0000b0 3e d6 64 bf 36 56 04 3f 56 2b 2b 3e ed b4 b1 bf
       -0.8938941 0.5169405 0.1671575 -1.3883339
0000c0 8c 8b d4 3e d7 77 03 40 47 29 a0 3f a6 a9 e9 3d
       0.41512716 2.0541894 1.2512597 0.11409311
0000d0 cd ca 9b bf bc ff 18 be 73 40 9a 3f 3b 43 7a 3e
       -1.2171265 -0.14941305 1.2050918 0.24439709
0000e0 54 1e 68 bf 94 ff 02 3f f3 34 94 3f d0 a3 72 3e
       -0.9067128 0.5117123 1.1578659 0.23695302
0000f0 46 8d bd 3e b9 ac e6 3e 8c 20 a7 3f 83 87 a9 bb
       0.37021846 0.45053652 1.3056808 -0.005173625
000100 1a 84 d0 3e e5 0a 35 3f ab e8 26 bf 21 da 82 bf
       0.40725785 0.7071975 -0.65198773 -1.0222818
000110 ee 2f 3b bd 86 e0 dd bf bb 48 67 bf e0 d3 26 3f
       -0.045700006 -1.7334144 -0.9034535 0.65167046
000120 09 64 84 bf 27 11 ae 3f c4 6c 30 bf c4 b4 58 3f
       -1.0343028 1.3598984 -0.68915963 0.84650826
000130 14 c5 4f 3e 04 2f ac bf 18 c7 7a 3f c6 79 84 3e
       0.20290023 -1.3451848 0.9796004 0.25874156
000140 4d d5 89 bf 21 34 99 bf ab 92 df 3f 07 44 a2 3f
       -1.0768219 -1.1969033 1.7466635 1.267701
000150 f1 57 2f 3f a6 b0 97 bf cb 5e 98 bd d9 0d 72 3f
       0.6849356 -1.1850784 -0.07439955 0.9455238
000160 74 af 12 bf 94 f3 27 3f 08 50 72 3f 14 cb 55 3e
       -0.5729897 0.65606046 0.9465337 0.2087825
000170 a6 86 2b bf 59 be 8d bf 26 e3 80 bf 5f 90 28 40
       -0.6700233 -1.1073714 -1.006932 2.6338117
000180 de 17 b0 be ec 8c 81 be 17 50 82 3f 54 1a 7d 3f
       -0.3439321 -0.25302827 1.0180691 0.988683
000190 90 7f 96 bf 90 71 11 bf f6 44 d4 3e 51 c1 e2 3f
       -1.1757679 -0.5681391 0.41458863 1.7715245
0001a0 2e b0 c3 3e 68 75 03 c0 c1 18 11 40 8d 9d 24 bf
       0.38220352 -2.054041 2.2671359 -0.64302903
0001b0 d6 15 fe 3e 02 95 3f be 9e 88 a5 3d 64 88 9b be
       0.49626034 -0.18709186 0.08082698 -0.30377495
0001c0 a4 a6 b1 3d 76 17 9e bf 1b 3c b3 bf 76 6d 38 3e
       0.08674362 -1.235091 -1.4002718 0.18010506
0001d0 11 d1 08 3f eb 69 b4 3e f2 2c 13 40 8f 9f 6f 3f
       0.5344401 0.3523706 2.2996182 0.9360284
0001e0 68 b1 99 bf 17 ec ba bf 73 55 68 bf eb c4 4e 3f
       -1.2007265 -1.4603299 -0.90755385 0.8076922
0001f0 1d 31 00 bf 25 e4 f3 be b5 cd b4 3f d6 15 6e bf
       -0.5007494 -0.47634998 1.4125277 -0.9300207
000200 ed 0a 16 bf ee a9 5d c0 33 db 54 3e 55 2f 45 3d
       -0.5861042 -3.4634967 0.20786743 0.048140842
000210 94 90 e3 3d 5d 71 b1 bf ed 7e 83 3f 9d 5f 0d bf
       0.111115605 -1.3862721 1.027311 -0.5522402
000220 68 30 30 3f b1 bb 1f be 5c db c2 3f de 63 77 3f
       0.6882386 -0.15598942 1.5223193 0.9663676
000230 a1 d3 2d 3f ea f6 77 3e b6 d3 c1 be 50 35 23 be
       0.67901045 0.24215284 -0.37856835 -0.15938306
000240 f1 4d 10 bf 1b ed dd 3e e9 ed d4 bf a0 14 d0 3d
       -0.5636893 0.4334496 -1.6635104 0.10160184
000250 47 43 42 bf eb a6 9f bd 7f 1f 4c 3f d5 ef a9 bf
       -0.7588391 -0.07795509 0.7973556 -1.3276316
000260 4d 8a a2 be f5 db 00 bf 2b ea 99 3f ef a1 6b 3e
       -0.3174614 -0.5033563 1.2024587 0.23010992
000270 46 d0 60 be f7 89 af bf 89 e0 8f bf d4 b1 82 bf
       -0.2195445 -1.3713979 -1.1240398 -1.0210519
000280 ec 00 20 bf ad 63 55 bf 10 1b f0 3f 59 ab 57 3f
       -0.62501407 -0.8335522 1.8758259 0.8424583
000290 d9 36 65 3f 68 83 b9 3f a8 76 90 3f ca 3b eb 3f
       0.89536816 1.4493227 1.1286211 1.8377621
0002a0 ca 69 e8 3e 16 a6 cb be bd 57 7a bf 2e 05 b2 3f
       0.4539321 -0.3977515 -0.9779013 1.3907831
0002b0 48 ab 26 3f 19 cb a5 3f 7d 63 39 3e 27 0a c9 3e
       0.65105104 1.2952605 0.18104358 0.39265558
0002c0 f3 7d 83 3d 1b 03 fd be bb 84 94 3f af b1 f4 3f
       0.06420507 -0.49416432 1.1603006 1.9116725
0002d0 a2 1a b0 be 30 ff 36 3d 21 1d 8d bf 06 49 ad 3e
       -0.3439532 0.04467696 -1.1024514 0.33844775
0002e0 c3 6f 22 bf 79 84 81 be 37 eb 9d bf 7d 7d 3e bf
       -0.63451785 -0.2529638 -1.2337407 -0.7441023
0002f0 89 ff e2 3f 7b 77 ba 3e d1 fe 0c c0 d4 d5 b2 be
       1.7734233 0.3641928 -2.2030528 -0.34928763
000300 81 5d 6a be 3c 17 3e be c7 e8 ea bf 30 2a fb 3e
       -0.22887231 -0.1856355 -1.8352288 0.49055624
000310 5c 94 85 bf 58 8c c3 3f ad b8 ff be c6 6b e9 be
       -1.0435901 1.5277205 -0.49945584 -0.45590037
000320 ae d0 88 3f 78 15 be be 27 6e d7 3f 62 47 6c 3f
       1.0688684 -0.37125754 1.6830491 0.9229642
000330 72 29 89 3f fe 43 f5 3e eb eb e8 bd 85 8b 0e 40
       1.0715773 0.47903436 -0.11373123 2.2272656
000340 1a c3 85 bf 1b ca 83 be 30 35 d9 bf 64 29 90 bf
       -1.0450165 -0.25740132 -1.6969357 -1.1262631
000350 59 dc 6e bf 3f bc 57 bf 1b b2 1b 3f 2a 5b 4e be
       -0.93304974 -0.84271616 0.6081864 -0.20151964
000360 3e ef a5 bd 4e 3b 9e bf 79 ab 81 bf 2a d7 f8 bc
       -0.081022725 -1.2361848 -1.0130454 -0.030376036
000370 3c 7c e1 bf 84 78 a1 be 51 4e af bf 6a 01 13 bf
       -1.7616038 -0.3153726 -1.3695775 -0.5742403
000380 72 9e ab 3e c6 f3 0e 3d 8c 7b cd be b7 6d ee 3e
       0.33519322 0.03490045 -0.4013332 0.4656808
000390 fe 41 f6 3e b6 a4 90 bf 32 1c 8e 3f 33 a9 f4 bf
       0.48097223 -1.1300266 1.1102355 -1.9114136
0003a0 d3 b7 48 3e 3a 7c ed 3f 0d 53 40 3f 85 af 8b bf
       0.19601373 1.8553536 0.75126725 -1.0912939
0003b0 57 f1 fa be 19 39 f0 bf 04 6a 95 bd 31 59 13 bf
       -0.49012253 -1.8767425 -0.072956115 -0.5755797
0003c0 69 5e e8 be 53 6d 05 c0 1e 1b 65 3f cb 31 ca bf
       -0.4538453 -2.0847976 0.894945 -1.5796446
0003d0 74 09 b1 3d 0f 2c 03 3f 07 d0 5e 3e fd dc 77 3f
       0.08644381 0.51239103 0.21759044 0.96821576
0003e0 05 af 96 3f 9b 72 6e be 4c 26 6e 3f 1a b1 2c bf
       1.1772162 -0.23285906 0.93027186 -0.67457736
0003f0 71 92 4e 3f e1 de 6e 3f 68 72 6e 3f 3a 67 d8 3f
       0.806922 0.93308836 0.9314332 1.6906502

fc1.weight f4 [32, 64]
000000 68 62 98 3d a0 bc 29 bd b0 64 9e 3c d0 d2 ca bc
       0.074406445 -0.041439652 0.01933512 -0.024758726
000010 da 10 e5 3d 20 03 b2 bc 0c 88 af 3d 04 87 f8 3d
       0.11184855 -0.021730006 0.08570871 0.12135127
000020 88 6a 65 bd c0 74 a0 3c 10 96 df 3c 3e c0 b2 bd
       -0.0560098 0.01958692 0.027293235 -0.087280735
000030 26 e2 f8 bd dc 57 9a 3d 58 f0 ea bd b4 a9 72 3d
       -0.121525094 0.07536289 -0.11471623 0.059243873
000040 80 71 d8 bd e0 91 2f 3d b0 ec 55 3d 28 02 f4 3d
       -0.105685234 0.042863727 0.052227676 0.11914474
000050 0a 61 a8 bd 38 eb bd 3c 00 07 54 bd b0 30 a8 bc
       -0.08221634 0.02318345 -0.05176449 -0.020531029
000060 14 35 61 bd 6e 92 a0 bd 64 7a 52 3d ae c2 ec 3d
       -0.05498226 -0.07840429 0.051386252 0.1156057
000070 a6 5d c3 3d 98 39 80 bd e8 7f 73 bd 00 2b 1c bb
       0.095393464 -0.06260985 -0.059448153 -0.002382934
000080 34 8c 50 bd 10 68 4c bc 7c b9 23 3d 34 b7 e1 3d
       -0.050914958 -0.012475982 0.039971814 0.11021271
000090 72 54 b1 3d 06 03 e5 bd 20 2a 36 3d f0 ee 81 bd
       0.08658685 -0.11182217 0.044473767 -0.06344402
0000a0 32 26 8b 3d 6e 99 df bd 9a 62 8a bd 00 6a d3 3b
       0.067943946 -0.10917936 -0.06757088 0.006451845
0000b0 9c 83 e9 bd 0c d9 5c 3d a0 d3 a2 bc 90 85 df bc
       -0.114020556 0.05391793 -0.019876301 -0.027285367
0000c0 90 ae c2 3d 42 d1 b7 3d fa 34 c1 bd 5c 68 18 bd
       0.095059514 0.0897546 -0.094339326 -0.0372089
0000d0 7e 18 f2 3d 20 1a aa bd 9e 09 99 bd 1e d7 d5 3d
       0.11821078 -0.08305764 -0.074725375 0.10441421
0000e0 e0 bf 45 3d 76 29 a0 bd 32 6c 97 3d 84 ce 39 bd
       0.04827869 -0.07820408 0.073936835 -0.045362964
0000f0 b8 10 58 bd 14 dc 07 bd 70 66 bc 3c 48 94 cc 3d
       -0.05275032 -0.033168867 0.022998065 0.0998922
000100 3c 1a 89 bd 93 9b 7b 3e d3 e1 ea bc 14 e3 ba be
       -0.06694457 0.24571066 -0.028672135 -0.36501372
000110 9a 52 e2 3d b0 cd b5 3d f7 09 f4 3a 65 35 11 bd
       0.11050911 0.088771224 0.0018618692 -0.03545131
000120 f1 18 2c 3d 95 6a 4d be 06 6a 0e 3d 78 e9 be be
       0.042015973 -0.20060189 0.03476908 -0.37287498
000130 2f dc b2 bd a4 f4 30 be f2 0c 35 3e 29 d6 7c bd
       -0.08733403 -0.17280823 0.1768072 -0.061727677
000140 7f 2e 1f be 95 5a 95 ba 5a 4d ab bd d7 a4 dc 3d
       -0.1554508 -0.0011394793 -0.08364363 0.10773628
000150 20 e5 05 3e 38 57 06 bf f3 83 10 3e ab e9 ae bd
       0.13075686 -0.52476835 0.14112835 -0.085406624
000160 8a 18 51 be ac 39 fd 3d 91 82 61 bd 84 f0 f1 3c
       -0.20419517 0.12364516 -0.05505616 0.029533632
000170 97 a2 14 3d cc 65 83 3d 70 5b b3 bd 9b 35 05 3d
       0.03628787 0.064159006 -0.08757675 0.032521825
000180 ba 26 35 be 32 88 e5 be f8 d9 ec 3c 98 01 ac 3d
       -0.17690554 -0.4483047 0.02891253 0.083987415
000190 e1 87 09 3e 22 f0 48 be 55 4e ba 3c 08 d2 d0 3d
       0.1343074 -0.19622853 0.02274243 0.1019631
0001a0 fe b0 09 be e4 3c 66 3c 53 43 18 be 9c 63 86 bd
       -0.13446423 0.014052603 -0.14869432 -0.06561968
0001b0 28 71 d7 3d 72 92 11 3d 01 36 9d be 3f e4 92 3c
       0.1051963 0.03554005 -0.30705264 0.017931102
0001c0 ca e7 5e 3c 92 99 a9 bb 0f 6b ca 3d d7 c2 54 3e
       0.0136050675 -0.0051757777 0.09883701 0.2077745
0001d0 3d 53 c0 3d 39 60 9f be ae bb 04 3e 95 15 42 bd
       0.093908764 -0.311281 0.12962219 -0.047383863
0001e0 d6 20 7d 3d 18 d8 45 3e 98 0a 64 bd e9 44 b4 bd
       0.061798893 0.19320714 -0.055674165 -0.08802206
0001f0 b3 d3 32 be 31 20 6a 3e d0 06 a3 3c 1d dc db be
       -0.1746357 0.22863843 0.01990071 -0.4294137
000200 0c d1 57 bc 90 f6 e0 3d 50 90 e0 3d 25 87 d5 3d
       -0.013172399 0.10984528 0.109650254 0.104261674
000210 f4 35 77 bd 56 65 9e 3d c8 37 26 3d c9 08 d5 bb
       -0.060354188 0.07734172 0.04058054 -0.0065012914
000220 13 bd b0 bd ff 86 35 3c ff 70 06 3e 67 c5 8b bd
       -0.08629813 0.011079549 0.13129042 -0.06824761
000230 c1 d2 a0 bc 63 c7 fd 3d 43 1a 9e 3d 5c e7 eb bc
       -0.019631745 0.123915456 0.07719853 -0.028796844
000240 4d e8 4d bd 73 6d b7 bd 14 ed 6d bc 5d 12 cd bd
       -0.050270367 -0.08956423 -0.014521856 -0.10013268
000250 04 64 0d 3c ae db 03 be 3a bb d7 bc c5 7f 52 3a
       0.008629803 -0.1287677 -0.026334394 0.00080299034
000260 3c 97 82 bd 50 9b bb bd 49 0c d2 3c b1 ce 8f bd
       -0.06376502 -0.09160483 0.025640624 -0.07021845
000270 50 bb 62 3c 72 66 7e 3d cb b8 87 3c 1a 49 71 3d
       0.013838604 0.06210942 0.016567608 0.058907606
000280 28 4c d3 bd 40 38 e4 ba f9 81 d2 bd e3 06 b1 bb
       -0.1031726 -0.0017411783 -0.102786966 -0.0054024323
000290 53 34 62 bd 8c 06 94 3c 56 44 b9 3d 2b 91 7c bc
       -0.05522568 0.018069528 0.09046237 -0.01541547
0002a0 db b6 3b 3d c0 79 a1 bc d9 97 8e 3d 60 87 ca 3d
       0.04582868 -0.019711375 0.069625564 0.09889102
0002b0 2b 0a 33 3d 2a 9b 3d 3d 56 b9 c1 bc ca 94 75 3c
       0.04371087 0.046290554 -0.023647945 0.014989087
0002c0 11 6f f1 bd 6a 43 e7 bc 45 9e 87 3c 00 a1 13 bd
       -0.11788762 -0.028230388 0.016554961 -0.036042213
0002d0 5f 95 98 bd 29 2b b1 bd 49 74 c1 3d 61 82 8f 3d
       -0.07450365 -0.0865081 0.09446008 0.0700729
0002e0 a0 a1 41 bd 3f b8 9f 3d 22 b2 ac 3c 9d 55 97 bd
       -0.04727328 0.07798814 0.021081034 -0.07389376
0002f0 f3 6f 98 3d e8 67 7e 3d 2e f7 8e 3d d8 9d be bb
       0.074432276 0.06211081 0.069807395 -0.0058171563
000300 28 8b 6f 3d 7c bd 31 bd d6 79 dd bd 4a 01 b2 bd
       0.05848232 -0.043393597 -0.10814254 -0.08691652
000310 b0 51 21 3c ea cb 9b bd ac 3d ab bd 70 06 13 bd
       0.009846136 -0.07607253 -0.08361372 -0.03589481
000320 42 09 c6 bd 3e 2b b2 3d f2 cb 99 bd 4e d8 d0 bd
       -0.096697345 0.08699654 -0.075096026 -0.10197507
000330 be 3e c5 bd a0 55 a6 3c f0 7d 55 3c 82 2f 93 bd
       -0.09631108 0.020304501 0.013030514 -0.07186796
000340 48 55 a0 3d b0 29 04 bc a0 83 cf bc 64 ea fe bd
       0.07828766 -0.00806658 -0.025331318 -0.1244705
000350 62 a6 c9 bd b0 4b f6 bc 3c f2 77 3d 48 c4 62 bd
       -0.09846188 -0.030065387 0.060533747 -0.05536297
000360 1a 78 90 bd 7e d2 85 3d d0 63 44 3d 02 50 ab 3d
       -0.070541576 0.06534289 0.04794675 0.0836487
000370 24 cc e2 3d f4 25 14 bd 48 86 e3 bc 48 b7 56 bd
       0.11074093 -0.036169007 -0.027773991 -0.052420884
000380 00 00 95 3c 90 c9 3f 3c 24 4c 94 3d 38 44 75 bd
       0.018188477 0.011705771 0.07241085 -0.05987951
000390 04 27 f1 bd 00 fd 6b bc 8a 43 c4 bd 18 cc 41 bd
       -0.1177502 -0.014403582 -0.095831946 -0.04731378
0003a0 e8 fa 49 bd 24 d4 f4 bd 82 73 f4 3d c4 d8 b6 bd
       -0.04931155 -0.11954525 0.11936094 -0.089280635
0003b0 86 bc 8b 3d bc 62 d7 3d 70 07 e7 3c 54 33 2f bd
       0.06823067 0.10516879 0.028201789 -0.04277356
0003c0 ea b1 ee 3d 60 b1 cf bc 80 2a 35 bd d4 de d4 3d
       0.11655028 -0.025353134 -0.044229984 0.103940636
0003d0 80 b8 de 3b f4 f9 9b bd 78 8e 3f 3d 96 3e 80 bd
       0.0067968965 -0.07616034 0.04676673 -0.06261937
0003e0 b8 62 78 3d 9c cd 29 3d 46 ae bb bd a6 d6 88 3d
       0.06064102 0.04145585 -0.091640994 0.06681566
0003f0 0c 67 da 3d 5c 38 34 3d 90 70 27 3d 44 70 92 3d
       0.10664186 0.04399906 0.040878832 0.07150319

fc1.bias f4 [32]
000000 f8 31 b9 3d 24 24 bb 3c e0 b0 c7 bc 64 6c a6 3d
       0.09042734 0.022844382 -0.024376333 0.081261426
000010 dc 20 24 bd 37 f3 91 3c 20 dd 90 3d 3c 59 b8 bd
       -0.0400704 0.01781617 0.07073426 -0.09001395
000020 9c 01 fc bd 4d 39 0a 3e ff 6c 91 3d e9 69 05 3e
       -0.123049945 0.13498421 0.071008675 0.13028683
000030 e2 fa 8c 3d 69 5a a8 3d 75 4e 1b bd 6a c1 93 3d
       0.068837896 0.08220369 -0.03791662 0.07214625
000040 0e 30 36 3e 2f 80 12 be 56 f7 92 3d 7c bf 77 bd
       0.17791769 -0.1430671 0.07176082 -0.060485348
000050 50 c3 4b 3d 80 1c f5 ba ad 4c 2c bd 6c 24 a3 3d
       0.04974681 -0.001870051 -0.04206531 0.07965931
000060 ea 37 ff bd 8f 7d cb 3b 79 2a 9d bd 24 96 57 3c
       -0.12461837 0.006210036 -0.07674117 0.013158355
000070 50 db 95 bc b6 88 8b bd ae f4 8f 3d de 3c c5 3c
       -0.018293053 -0.06813185 0.07029091 0.024076875

fc2.weight f4 [1, 32]
000000 45 7b 2b 3e 64 31 57 be 36 a2 d9 bc 4a 4d 05 3e
       0.16746242 -0.21014935 -0.026566606 0.13017765
000010 d0 5d 9a 3c 60 35 be be c0 76 95 be d3 e4 ee bc
       0.018843561 -0.37150097 -0.29192162 -0.029161846
000020 8f 6b cc 3a 9f 82 bc be 19 8f 9e 3e ee 22 ae be
       0.001559602 -0.36818406 0.3096855 -0.34011024
000030 59 0b 4b 3b c9 be ce be 4a 1f 6c 3e da 16 c1 bd
       0.0030982106 -0.40379933 0.23058811 -0.09428187
000040 d2 ac 95 be fd 85 ac 3e 26 ce 91 3e 55 3b 78 bb
       -0.29233414 0.33695975 0.2847759 -0.0037877162
000050 6f 14 10 bd 17 81 0f be 6a fc 5e be 5e c0 1c 3e
       -0.035175737 -0.14014088 -0.21775976 0.15307757
000060 0e b0 2e be 35 3e 80 3e ad 10 08 be 14 f4 61 3e
       -0.17059347 0.2504746 -0.13287611 0.22065765
000070 82 3d 0f be 91 cb 17 3e 7b 33 26 3e 2e b6 09 3e
       -0.13988307 0.14823748 0.16230576 0.13448402
